…
------CNN-------#####      layers.Conv2D(5, (3,3), activation='relu', padding=\"same\", input_shape=(28, 28,1)),     layers.MaxPooling2D((2,2)),    #######------ MLP-----####     layers.Flatten(),     layers.Dense(120, activation='relu'),     layers.Dense(10, activation='softmax')  ###### neuroniios especialistasss ])   model.summary()  <pre>Model: \"sequential_11\"\n_________________________________________________________________\n Layer (type)                Output Shape              Param #   \n=================================================================\n conv2d_12 (Conv2D)          (None, 28, 28, 5)         50        \n                                                                 \n max_pooling2d_7 (MaxPooling  (None, 14, 14, 5)        0         \n 2D)                                                             \n                                                                 \n flatten_5 (Flatten)         (None, 980)               0         \n                                                                 \n dense_9 (Dense)             (None, 120)               117720    \n                                                                 \n dense_10 (Dense)            (None, 10)                1210      \n                                                                 \n=================================================================\nTotal params: 118,980\nTrainable params: 118,980\nNon-trainable params: 0\n_________________________________________________________________\n</pre> In\u00a0[\u00a0]: Copied! <pre>model.compile(optimizer='adam',\n              loss='sparse_categorical_crosse
…
nse(64, activation='relu')) model.add(Dropout(0.5))  # \u00daltima camada totalmente conectada com 10 sa\u00eddas (10 classes de categoria de imagem) model.add(Dense(10, activation='softmax'))  # Compilando o modelo model.compile(optimizer='adam', loss='categorical_crossentropy', metrics=['accuracy'])  # Resumo do modelo model.summary()  <pre>Model: \"sequential_1\"\n_________________________________________________________________\n Layer (type)                Output Shape              Param #   \n=================================================================\n conv2d_3 (Conv2D)           (None, 30, 30, 32)        896       \n                                                                 \n batch_normalization_3 (Bat  (None, 30, 30, 32)        128       \n chNormalization)                                                \n                                                                 \n max_pooling2d_3 (MaxPoolin  (None, 15, 15, 32)        0         \n g2D)                                                            \n                                                                 \n conv2d_4 (Conv2D)           (None, 13, 13, 64)        18496     \n                                                                 \n batch_normalization_4 (Bat  (None, 13, 13, 64)        256       \n chNormalization)                                                \n                                                                 \n max_pooling2d_4 (MaxPoolin  (None, 6, 6, 64)          0         \n g2D)                                                            \n                                                                 \n conv2d_5 (Conv2D)           (None, 4, 4, 128)         73856     \n                                                                 \n batch_normalization_5 (Bat  (None, 4, 4, 128)         512       \n chNormalization)                                                \n                                                                 \n max_pooling2d_5 (MaxPoolin  (None, 2, 2, 128)         0         \n g2D)                                                            \n                                                                 \n flatten_1 (Flatten)         (None, 512)               0         \n                                                                 \n dense_3 (Dense)             (None, 128)               65664     \n                                                                 \n dropout_2 (Dropout)         (None, 128)               0         \n                                                                 \n dense_4 (Dense)             (None, 64)                8256      \n                                                                 \n dropout_3 (Dropout)         (None, 64)                0         \n                                                                 \n dense_5 (Dense)             (None, 10)                650       \n                                                                 \n=================================================================\nTotal params: 168714 (659.04 KB)\nTrainable params: 168266 (657.29 KB)\nNon-trainable params: 448 (1.75 KB)\n_________________________________________________________________\n</pre> In\u00a0[8]: Copied! <pre># Configurando a callback ModelCheckpoint para s
…
emos, vamos voltar para o nosso problema original.\n</pre> # Vamos aproveitar e entender como funciona o objeto zip # O zip recebe 2 ou mais sequencias e cria uma tupla juntando um elemento de cada  c = 'FIAP' d = [0,1,2,4] zip(c,d)  # objeto zip  for pares in zip(c, d):     print(pares)  print(\"...\")#pular linha  #no exemplo acima b \u00e9 uma tupla (x,y), para iterar precisamos descompactar a tupla, para isso usamos *.  for pt in zip(*b[::-1]):     print(pt,pt[0],pt[1])   # Agora que entendemos, vamos voltar para o nosso problema original. <pre>('F', 0)\n('I', 1)\n('A', 2)\n('P', 4)\n...\n(1, 0) 1 0\n(2, 0) 2 0\n(0, 1) 0 1\n(1, 1) 1 1\n(2, 1) 2 1\n(1, 2) 1 2\n(2, 2) 2 2\n</pre> In\u00a0[17]: Copied! <pre>#Extrai o shape (dimens\u00e3o da imagem)\nw, h = template.shape[::-1]\n\n\n#print(res) #### ajuda a definir o valor de threshold\nthreshold = 0.1\nloc = np.where( res &lt;= threshold)\n\nfor pt in zip(*loc[::-1]):\n    cv2.rectangle(img, pt, (pt[0] + w, pt[1] + h), (0,255,0), 5)\n\n\n\n\n#cv2.imwrite(\"res2.png\",img)\nplt.figure(figsize = (10,10))\n#plt.imsh
…
